data.pth (torch, 16689 bytes, 6 tensors)

l1.weight f4 [8, 232]
-0.82849264 3.4276493 -0.3715042 -1.0868058 1.2733992 1.944397 -0.5902177 0.2953351
0.688258 1.3227043 0.6920789 -0.49433923 0.9101599 -0.1097656 -0.12105759 -0.8771521
-0.26478636 -0.056434453 -0.6874974 -0.95522124 0.8137559 1.0889516 0.44892818 0.071600854
1.0924191 -0.4008125 -0.7054078 3.269968 -1.0065836 -1.3916268 1.6705968 -0.09995047
2.0019078 -1.6751275 -0.08949864 1.2247725 -1.9295583 1.2668387 0.517225 1.0974467
0.67402196 0.9573572 1.3046737 -0.59396017 0.8354715 -1.5268707 -0.8071702 0.93875253
0.98729515 -0.6147201 -0.6299494 -0.9084945 0.2835429 1.2613856 0.047870696 0.1277463
2.7290223 1.9225079 -1.1213208 -0.21117511 0.62059504 0.8721324 -1.2758943 -2.2586071
-0.5495028 -0.7644429 0.15069923 1.7328541 -1.3747628 1.5879879 -1.4135216 2.1318557
0.051761802 0.49687505 1.0935462 -1.6387069 1.5680162 0.11659544 1.1786717 -0.06257252
-0.9198912 0.2471194 0.4462786 -0.7912949 0.780292 -2.0173457 -1.5356498 -1.9126875
-0.5158049 -0.8645696 0.49086693 -1.3107904 0.62526834 2.048429 0.39083946 1.0994359
1.0538834 -0.813346 0.21511906 -0.61620444 0.65231407 -0.67665684 0.4954603 0.63438404
1.4091675 0.23193093 -0.48013112 0.2895393 1.181912 -1.5396206 -0.39464134 -0.62649465
-0.41332605 -1.1213149 -1.4359803 1.148908 -0.07482278 1.5452163 -1.3275262 0.32215613
0.98620385 2.216083 1.708112 2.5258446 -0.245075 -0.5946962 -1.4138801 0.7275307
-1.6913451 0.44486576 0.36401796 0.806927 -0.41047397 -0.13384311 -0.70879567 -0.48789665
-0.53672165 1.3872156 -0.58578134 -1.6186826 -1.6365768 1.9026263 -0.2207523 0.06507584
0.80740005 -0.19135195 1.2758754 0.9608734 -0.77290213 -0.10628166 -0.5918481 0.39944082
-1.3408852 -0.62678885 -0.36880136 -0.5290752 0.7346576 -1.2345824 0.7858602 0.3326412
-1.8686666 -0.74684495 1.3789663 1.1093376 0.70974696 -0.5280097 0.32413876 0.7555107
0.9983906 -0.25543338 0.3885937 -1.0840955 0.38288683 1.9200798 1.9101285 -1.3752562
-1.155006 -0.23200622 2.1953297 -0.025318936 0.71127236 1.6155221 -1.4061296 -0.6087612
0.19503671 0.84181875 -1.4005873 0.29524806 -0.688821 0.21378045 -0.88883317 -0.96969545
1.0895671 -0.24302512 -0.19837886 -0.8473593 0.7472837 -1.3764244 -0.19636989 1.171754
1.7761521 -0.13307105 0.5199707 0.6147231 0.7961112 0.12132591 -0.8394803 0.7433868
2.6234066 -0.027745577 1.4975291 -1.0976835 -0.4917943 0.41001442 -0.7862721 -1.82924
-0.56004447 1.7648416 0.23480469 1.3834751 -0.711761 -0.8738816 -0.53386945 -0.09043318
-1.4339931 1.0129044 -1.7798985 0.70622545 -0.82215816 1.2272953 1.4596298 2.3543985
0.97741705 0.6770216 0.33485425 0.06056685 1.0838375 1.2255534 -0.12413468 -0.14135456
0.13997526 0.82392013 1.6706768 0.40326986 -1.4676619 -0.066058464 0.2727648 -0.03006275
-0.9485172 1.178997 -0.022755519 -0.40460566 0.91685283 1.1078213 -1.0100454 0.3390966
00000000: 1818 54bf 9b5e 5b40 cc35 bebe 741c 8bbf
00000010: bffe a23f 00e2 f83f 8218 17bf 2a36 973e
00000020: ad31 303f 604e a93f 152c 313f 081a fdbe
00000030: 3d00 693f c9cc e0bd 0bed f7bd 0a8d 60bf
00000040: 1492 87be d027 67bd d4ff 2fbf 6189 74bf
00000050: 4f52 503f c462 8b3f ead9 e53e 78a3 923d
00000060: 64d4 8b3f 4c37 cdbe 9b95 34bf 2847 5140
00000070: bbd7 80bf d420 b2bf 1ed6 d53f d5b2 ccbd
00000080: 421f 0040 946a d6bf 104b b7bd 58c5 9c3f
00000090: c4fb f6bf c527 a23f dc68 043f 2279 8c3f
000000a0: b48c 2c3f 5d15 753f 8cff a63f c60d 18bf
000000b0: 76e1 553f 8070 c3bf b5a2 4ebf 1652 703f
000000c0: 60bf 7c3f 4c5e 1dbf 5d44 21bf 1893 68bf
000000d0: 892c 913e 1575 a13f 1014 443d edcf 023e
000000e0: 4da8 2e40 bd14 f63f 7187 8fbf 4a3e 58be
000000f0: 51df 1e3f 1244 5f3f 8150 a3bf 058d 10c0
00000100: 37ac 0cbf 88b2 43bf e650 1a3e 2ace dd3f
00000110: 3af8 afbf 3043 cb3f 47ee b4bf 5370 0840
00000120: 2f04 543d 6866 fe3e 52f9 8b3f 26c1 d1bf
00000130: c1b4 c83f 97c9 ee3d b7de 963f 0526 80bd
00000140: fd7d 6bbf de0c 7d3e a17e e43e 4d92 4abf
00000150: 37c1 473f 311c 01c0 2c90 c4bf f2d2 f4bf
00000160: ca0b 04bf 6f54 5dbf e952 fb3e fbc7 a7bf
00000170: 9611 203f 7619 0340 1c1c c83e 51ba 8c3f
00000180: a7e5 863f 7237 50bf 2c48 5c3e 93bf 1dbf
00000190: 0efe 263f 6239 2dbf f9ac fd3e fe66 223f
000001a0: 9a5f b43f 4d7f 6d3e bfd3 f5be 7f3e 943e
000001b0: e448 973f 4a12 c5bf 6e0e cabe f461 20bf
000001c0: 799f d3be 3f87 8fbf 34ce b7bf 6b0f 933f
000001d0: b03c 99bd a6c9 c53f 61ec a9bf a6f1 a43e
000001e0: db77 7c3f 4ed4 0d40 6aa3 da3f 70a7 2140
000001f0: f1f4 7abe 033e 18bf 06fa b4bf 743f 3a3f
00000200: ff7d d8bf 72c5 e33e 9060 ba3e c592 4e3f
00000210: a529 d2be 2b0e 09be a273 35bf 97cd f9be
00000220: 9766 09bf 4890 b13f c4f5 15bf fe30 cfbf
00000230: 597b d1bf 4289 f33f e40c 62be 7b46 853d
00000240: c5b1 4e3f c4f1 43be e34f a33f cdfb 753f
00000250: eadc 45bf 33aa d9bd 5b83 17bf 8283 cc3e
00000260: 20a2 abbf 3c75 20bf 88d3 bcbe 7971 07bf
00000270: 8512 3c3f cc06 9ebf 222e 493f f34f aa3e
00000280: 7830 efbf 3b31 3fbf f881 b03f c6fe 8d3f
00000290: fab1 353f a52b 07bf 84f5 a53e 2669 413f
000002a0: 8796 7f3f 2ac8 82be c1f5 c63e a4c3 8abf
000002b0: be09 c43e 2dc5 f53f 177f f43f 6508 b0bf
000002c0: 3dd7 93bf 0a93 6dbe 4880 0c40 a869 cfbc
000002d0: f215 363f 6ec9 ce3f 0efc b3bf c6d7 1bbf
000002e0: b4b7 473e 6f81 573f 7246 b3bf c12a 973e
000002f0: 9356 30bf 43e9 5a3e 928a 63bf f63d 78bf
00000300: ef76 8b3f 94db 78be d423 4bbe 8aec 58bf
00000310: fc4d 3f3f ad2e b0bf 3015 49be 09fc 953f
00000320: f458 e33f c743 08be cd1c 053f 7e5e 1d3f
00000330: f2cd 4b3f b879 f83d 2ee8 56bf 994e 3e3f
00000340: e5e5 2740 b14a e3bc 09af bf3f e580 8cbf
00000350: 76cc fbbe 69ed d13e 2149 49bf 8924 eabf
00000360: 135f 0fbf 54e6 e13f a470 703e b615 b13f
00000370: f835 36bf b4b6 5fbf abab 08bf 0835 b9bd
00000380: 168d b7bf daa6 813f b7d3 e3bf 31cb 343f
00000390: f578 52bf 0318 9d3f 26d5 ba3f 77ae 1640
000003a0: 0138 7a3f 4a51 2d3f 0472 ab3e f214 783d
000003b0: 30bb 8a3f efde 9c3f 533a febd 40bf 10be
000003c0: ad55 0f3e 6eec 523f bdd8 d53f 6379 ce3e
000003d0: 58dc bbbf a949 87bd d4a7 8b3e 2846 f6bc
000003e0: 06d2 72bf 60e9 963f c869 babc 7928 cfbe
000003f0: deb6 6a3f 17cd 8d3f 2b49 81bf 129e ad3e

l1.bias f4 [8]
2.4879298 1.6169127 1.0436352 1.5067731 1.8088433 2.9817226 1.0956873 1.140287
00000000: 3e3a 1f40 fff6 ce3f d795 853f f1dd c03f
00000010: 2d88 e73f 8bd4 3e40 7b3f 8c3f edf4 913f

l2.weight f4 [8, 8]
-0.034844767 0.073521115 -0.3453903 -0.062442686 -0.28925776 0.04616832 -0.386871 -0.12222365
-0.26926032 -0.20116629 -0.26709506 -0.015864387 0.15407614 0.05618244 0.12034114 -0.38330716
-1.4535471 5.6302423 -1.9399685 -1.1578754 4.5247655 0.050956953 0.60922396 2.6151865
0.021545501 -0.13407639 -0.16554353 -0.056084972 -0.22310123 0.1350345 -0.17101942 -0.09730101
7.359986 3.734259 -1.4044608 5.780053 1.6787914 5.1809335 1.7981632 -4.0958624
-1.4736452 0.97602326 0.97490287 0.79634744 -0.6099786 3.2392333 -3.7048662 3.0502284
2.0179267 -2.0274467 5.0588975 -2.3607068 3.9072711 0.5093027 -0.9784167 1.9678632
-0.102040775 -0.30927834 -0.06663258 -0.3086406 -0.14767967 0.31646562 -0.17181057 -0.3586613
00000000: 63b9 0ebd 3d92 963d ffd6 b0be e7c3 7fbd
00000010: 9819 94be fe1a 3d3d f513 c6be 6550 fabd
00000020: 7ddc 89be 89fe 4dbe afc0 88be 08f6 81bc
00000030: 23c6 1d3e 8f1f 663d 6a75 f63d d640 c4be
00000040: d50d babf f22a b440 e350 f8bf 4335 94bf
00000050: e1ca 9040 3db8 503d 1af6 1b3f 375f 2740
00000060: 3180 b03c 524b 09be 3e84 29be 5bb9 65bd
00000070: a674 64be 7c46 0a3e b71f 2fbe c045 c7bd
00000080: 0185 eb40 19fe 6e40 5fc5 b3bf 32f6 b840
00000090: a3e2 d63f 35ca a540 362a e63f 4e11 83c0
000000a0: 68a0 bcbf a9dc 793f 3c93 793f 6ddd 4b3f
000000b0: 8f27 1cbf 994f 4f40 871c 6dc0 f136 4340
000000c0: b625 0140 b0c1 01c0 7de2 a140 d215 17c0
000000d0: bb10 7a40 a961 023f 8479 7abf f1e2 fb3f
000000e0: c1fa d0bd bb59 9ebe a976 88bd 2406 9ebe
000000f0: 5739 17be c807 a23e 1cef 2fbe 74a2 b7be

l2.bias f4 [8]
-0.067463316 -0.3465186 0.9424817 -0.29820672 1.6225806 0.8202839 0.3515546 -0.22919877
00000000: 352a 8abd e36a b1be 7b46 713f 8dae 98be
00000010: b9b0 cf3f 20fe 513f f7fe b33e 15b3 6abe

l3.weight f4 [56, 8]
-0.200528 0.17938781 0.49031788 -0.2071755 -4.3997693 0.76262957 0.044776697 0.29108286
0.23578158 -0.37381268 0.11958127 0.32955757 0.19416009 -5.2075186 -0.873891 -0.11826013
-0.31037107 -0.40585223 0.5150735 0.17679256 -0.6511952 -0.90171474 -0.010124593 -0.303427
-0.17852251 -0.1025177 -3.9864984 -0.27699432 0.36043793 -4.8632636 0.053026 -0.28917158
-0.36741596 0.2953166 0.50644475 0.3357196 0.23416081 -4.767215 -3.8809907 0.008950242
-0.066478215 -0.34040588 -3.6423326 -0.23509668 0.38473946 0.48850375 -2.1779056 0.1847811
0.010771247 -0.35204124 -2.7177856 -0.027754486 -0.1213076 0.73762405 -0.7166405 -0.094211064
-0.09126329 -0.04617393 -1.5220143 0.2883224 -1.6476084 -0.16703692 1.1009759 0.2827088
0.073073655 -0.33171967 -0.462045 0.13427989 -0.922032 0.09292102 0.55031985 -0.22185591
0.22878398 0.19989996 1.2605262 0.050448857 -0.940644 -2.2113178 -1.630914 0.2083098
0.06277076 -0.19131604 0.6013011 -0.010983912 -2.190636 -3.686061 1.1543732 -0.1932757
-0.02698497 -0.15875795 0.62190586 -0.043600086 -1.4593344 -0.71568155 0.39273438 0.24426502
-0.18173076 -0.11922084 0.6737706 -0.08115716 -0.40549776 -0.4456176 -1.6396389 0.21484491
0.31124166 0.027834592 -1.8866026 -0.15888278 0.8566432 -3.9552321 -3.8832462 0.030591905
0.08078515 -0.37362564 -1.3221273 -0.279817 0.1935512 -2.0153296 -0.013147408 0.10136876
0.271396 -0.17506161 -0.24196047 -0.114608824 -0.118856944 -0.43570945 -0.3445853 -0.24626176
-0.23589383 -0.09484644 -0.23938875 -0.14806911 -2.4593523 0.39641333 0.692081 -0.30512404
0.09863578 -0.39940864 -0.32153535 -0.22992574 -0.44300228 0.19416796 -0.010693346 0.07047102
0.16175161 0.24618325 0.049852043 0.25296757 -0.10591267 -0.20051707 -1.2438372 0.067130424
0.24295795 -0.18731143 0.68459934 -0.06862411 -1.9088614 0.40038016 -0.1800529 0.28990647
-0.05870715 -0.040629447 -0.8409437 -0.33133993 0.34702772 -4.2836185 -0.37875256 -0.3264407
0.2067043 0.21970622 -2.046139 0.06837992 0.50397223 -1.890741 -0.97819245 -0.19442749
-0.0955927 0.18246844 -0.23879896 -0.3153575 0.0771883 -1.5984393 -0.33469555 0.29179952
-0.24275641 0.042539045 0.18168035 -0.082567155 -0.28317165 -1.9582658 0.10632872 0.011771025
-0.3495455 -0.2951148 -2.080562 -0.25225964 -0.7715502 -2.1104047 1.35962 -0.09930038
0.2302299 -0.010426746 -4.8228245 0.29439613 0.97914106 -4.421149 -3.6201375 -0.34222654
-0.3459823 -0.31978455 0.7012668 -0.17561918 -1.0144725 0.38115793 -1.1297431 0.113898806
-0.020836076 -0.29045326 -1.164437 -0.2741613 -0.48391104 0.569949 -0.017112365 -0.11661159
-0.37600502 0.10915595 -0.73468864 0.10487249 0.6968105 -4.2123585 -5.645641 0.14688262
-0.20974422 -0.3078969 0.59354436 -0.32797214 -3.5069602 -0.57638174 0.6944871 0.10994944
-0.21659152 -0.18429583 -3.8671243 -0.25251248 -0.119714566 0.057501268 0.13117324 -0.18217377
-0.0941471 0.1789606 -0.023377897 -0.09336008 -0.14746408 0.59308577 -4.002856 -0.067284666
00000000: 3657 4dbe 70b1 373e f20a fb3e d025 54be
00000010: e9ca 8cc0 b13b 433f c567 373d d008 953e
00000020: ba70 713e 6064 bfbe 06e7 f43d c5bb a83e
00000030: e7d1 463e fea3 a6c0 52b7 5fbf 5e32 f2bd
00000040: f5e8 9ebe ddcb cfbe dbdb 033f 1c09 353e
00000050: bbb4 26bf c7d6 66bf 9fe1 25bc c95a 9bbe
00000060: 9bce 36be cdf4 d1bd ca22 7fc0 33d2 8dbe
00000070: 528b b83e db9f 9bc0 ca31 593d 4c0e 94be
00000080: f21d bcbe bd33 973e 5da6 013f 70e3 ab3e
00000090: dac7 6f3e 068d 98c0 2762 78c0 09a4 123c
000000a0: bb25 88bd ae49 aebe fa1b 69c0 2fbd 70be
000000b0: 92fc c43e 2a1d fa3e ce62 0bc0 4237 3d3e
000000c0: e279 303c c03e b4be 33f0 2dc0 605d e3bc
000000d0: 1e70 f8bd eed4 3c3f c075 37bf bbf1 c0bd
000000e0: 3fe8 babd e020 3dbd 5dd1 c2bf fe9e 933e
000000f0: d5e4 d2bf ba0b 2bbe c7ec 8c3f 35bf 903e
00000100: a4a7 953d 29d7 a9be 2a91 ecbe ab80 093e
00000110: 4a0a 6cbf 604d be3d c3e1 0c3f 322e 63be
00000120: 5946 6a3e 93b2 4c3e ec58 a13f 76a3 4e3d
00000130: 0cce 70bf 3b86 0dc0 cac1 d0bf 2a4f 553e
00000140: f58d 803d 5ae8 43be deee 193f def5 33bc
00000150: 6133 0cc0 6ce8 6bc0 80c2 933f 11ea 45be
00000160: 950f ddbc 7291 22be 3935 1f3f 0196 32bd
00000170: 78cb babf e836 37bf 7b14 c93e 9c20 7a3e
00000180: a117 3abe 0e2a f4bd 3b7c 2c3f ba35 a6bd
00000190: 679d cfbe fd27 e4be b0df d1bf 4e00 5c3e
000001a0: 115b 9f3e 5f05 e43c 327c f1bf 2bb2 22be
000001b0: f84c 5b3f 8622 7dc0 1b87 78c0 e09b fa3c
000001c0: af72 a53d dc4b bfbe 783b a9bf 2c44 8fbe
000001d0: 4932 463e 29fb 00c0 3a68 57bc 6d9a cf3d
000001e0: 6bf4 8a3e 5a43 33be 7cc4 77be 08b8 eabd
000001f0: 456b f3bd 4f15 dfbe 7c6d b0be 0b2c 7cbe
00000200: 278e 71be da3e c2bd 5322 75be 6e9f 17be
00000210: 0766 1dc0 b0f6 ca3e 382c 313f 3839 9cbe
00000220: 8e01 ca3d 4a7f ccbe 48a0 a4be a771 6bbe
00000230: 32d1 e2be f7d3 463e 2533 2fbc 1c53 903d
00000240: 37a2 253e 7617 7c3e a831 4c3d f784 813e
00000250: bee8 d8bd 5954 4dbe 0f36 9fbf ad7b 893d
00000260: f8c9 783e 91ce 3fbe e741 2f3f cc8a 8cbd
00000270: 9255 f4bf a1fe cc3e ca5f 38be 9f6e 943e
00000280: e976 70bd 106b 26bd 1648 57bf 63a5 a9be
00000290: 9ead b13e 6713 89c0 dbeb c1be 3c23 a7be
000002a0: 4baa 533e abfa 603e f1f3 02c0 c60a 8c3d
000002b0: 5304 013f cd03 f2bf d26a 7abf 0018 47be
000002c0: 1bc6 c3bd 02d9 3a3e b787 74be 8a76 a1be
000002d0: e614 9e3d a999 ccbf 375d abbe bf66 953e
000002e0: 2395 78be 6c3d 2e3d 6a0a 3a3e f818 a9bd
000002f0: e0fb 90be 74a8 fabf dfc2 d93d 42db 403c
00000300: a1f7 b2be 4919 97be ee27 05c0 2d28 81be
00000310: 5084 45bf df10 07c0 0708 ae3f ff5d cbbd
00000320: 63c1 6b3e f1d4 2abc 9454 9ac0 17bb 963e
00000330: fda8 7a3f 0d7a 8dc0 55b0 67c0 5138 afbe
00000340: 9824 b1be cdba a3be 3986 333f 84d5 33be
00000350: 3cda 81bf 2227 c33e 6c9b 90bf c743 e93d
00000360: 6bb0 aabc 4ab6 94be 460c 95bf df5e 8cbe
00000370: 30c3 f7be 2de8 113f 3b2f 8cbc 0fd2 eebd
00000380: bb83 c0be 288d df3d 8e14 3cbf 63c7 d63d
00000390: 2c62 323f a4cb 86c0 17a9 b4c0 6668 163e
000003a0: 30c7 56be aaa4 9dbe 86f2 173f f7eb a7be
000003b0: 0972 60c0 c18d 13bf e8c9 313f 2c2d e13d
000003c0: 2bca 5dbe 0cb8 3cbe f77e 77c0 5149 81be
000003d0: e92c f5bd 7386 6b3d 4752 063e c38b 3abe
000003e0: 32d0 c0bd 7341 373e 0183 bfbc 9233 bfbd
000003f0: d300 17be 78d4 173f 6517 80c0 8bcc 89bd

l3.bias f4 [56]
-0.18040451 0.9891081 -0.63237935 -0.31632984 0.8567995 -0.17593573 -0.55060077 0.5298763
-0.47082233 0.9611818 1.3836883 -0.57323176 -1.061111 -1.868264 -1.2482098 -1.7125292
-0.07454146 -0.52005124 -1.194122 -0.07135097 -1.0712752 0.088020295 0.59795666 -1.0734656
0.6630124 3.4049332 -0.536211 -0.60071653 -1.410897 0.11715298 -0.10299482 -1.043669
0.32500193 -2.2512853 -0.27027053 -0.9139539 0.042840574 -1.0344012 -0.44200337 1.5208032
-0.34239426 -0.18012069 0.61803395 0.660369 -0.108206145 1.3162152 -0.19320062 0.15284245
-0.7887935 -0.1722055 -1.5323937 0.3374935 -1.2353865 -0.09500526 0.08462107 -1.9314032
00000000: f6bb 38be 3036 7d3f 9de3 21bf fcf5 a1be
00000010: 3657 5b3f 7f28 34be 2cf4 0cbf f9a5 073f
00000020: a00f f1be 0310 763f b31c b13f 51bf 12bf
00000030: 7cd2 87bf 4623 efbf 57c5 9fbf 2834 dbbf
00000040: 31a9 98bd 1422 05bf fdd8 98bf 7520 92bd
00000050: 8c1f 89bf fc43 b43d b013 193f 5267 89bf
00000060: 2ebb 293f 6dea 5940 2045 09bf 8fc8 19bf
00000070: 4698 b4bf e7ed ef3d f3ee d2bd f296 85bf
00000080: a766 a63e 0f15 10c0 e660 8abe e2f8 69bf
00000090: 9979 2f3d 4267 84bf 444e e2be aea9 c23f
000000a0: 4d4e afbe 8f71 38be 7937 1e3f f10d 293f
000000b0: 2f9b ddbd bd79 a83f 62d6 45be bb82 1c3e
000000c0: 5fee 49bf a356 30be 7a25 c4bf f3cb ac3e
000000d0: 2521 9ebf 1e92 c2bd d04d ad3d 3838 f7bf
